model/model.pth (torch, 1875 bytes, 4 tensors)

linear1.weight f4 [16, 4]
-0.061184257 -0.10104942 0.3244803 -0.093812615 -0.49317932 0.18709302 0.058696445 -0.49409163
0.01332458 0.20234585 -0.374333 0.64693785 -0.023657652 0.4626394 -0.1188141 0.25838253
0.20993793 0.4975781 -0.020785742 0.24288674 0.24183746 -0.5634274 -0.14478981 0.117280625
-0.26051012 -0.05100544 0.45596933 -0.39438316 0.09442879 0.2842816 0.91759884 0.33282107
0.18843569 -0.46913764 0.30996585 -0.49664256 -0.25327092 -0.0041006976 0.32172093 0.23778562
0.3984932 0.48857868 -0.0653032 0.4630685 -0.28139842 -0.53598773 -0.6359231 -0.11300896
-0.3943932 0.19562861 0.014087612 -0.06855649 -0.43855628 -0.40928158 0.08769189 0.39332503
0.035484545 -0.40540767 0.1735433 -0.06289908 0.15467653 -0.38911167 0.19800386 0.39191607
00000000: 589c 7abd 00f3 cebd 4822 a63e d420 c0bd
00000010: 0082 fcbe 5095 3f3e af6b 703d 94f9 fcbe
00000020: 574f 5a3c c033 4f3e 93a8 bfbe b89d 253f
00000030: b1cd c1bc 12df ec3e cf54 f3bd b74a 843e
00000040: f8f9 563e 8fc2 fe3e dc46 aabc 4db7 783e
00000050: 3da4 773e c73c 10bf c843 14be d330 f03d
00000060: 9561 85be 15eb 50bd d074 e93e 97ec c9be
00000070: e263 c13d 5c8d 913e c2e7 6a3f 8667 aa3e
00000080: 49f5 403e cf32 f0be d8b3 9e3e ef47 febe
00000090: baac 81be 255f 86bb 9bb8 a43e 137e 733e
000000a0: 4d07 cc3e fc26 fa3e afbd 85bd 5017 ed3e
000000b0: 7413 90be 7e36 09bf dbcb 22bf 3e71 e7bd
000000c0: e8ed c9be de52 483e bacf 663c 5867 8cbd
000000d0: 738a e0be 5b8d d1be ce97 b33d e661 c93e
000000e0: 3e58 113d 9891 cfbe 56b5 313e 3cd1 80bd
000000f0: 8663 1e3e a539 c7be 86c1 4a3e 39a9 c83e

linear1.bias f4 [16]
-0.290083 0.036226884 0.004849514 -0.30256 -0.46731254 -0.22850591 -0.61446387 0.12744221
0.16618928 -0.3193469 -0.14605916 0.70167273 -0.098665364 0.38750315 -0.15330651 0.0062919413
00000000: c285 94be a462 143d ace8 9e3b 25e9 9abe
00000010: 9743 efbe 74fd 69be 814d 1dbf 3680 023e
00000020: 862d 2a3e 7081 a3be 8890 15be d3a0 333f
00000030: 1111 cabd d066 c63e 62fc 1cbe a12c ce3b

linear2.weight f4 [2, 16]
-0.28627312 -0.12531874 -0.39154357 -0.22364303 0.024111876 0.2536798 -0.12573427 0.27551356
0.40882254 -0.3471612 0.074931614 -0.029497266 0.42884967 0.0025004449 -0.1673679 0.03265652
0.21033706 0.13174243 0.25706288 -0.21361646 -0.20535816 0.11834104 0.13033438 -0.24848217
0.108043596 -0.29667652 -0.24875672 0.168996 -0.3044087 -0.03774974 -0.16822407 0.13542975
00000000: 6492 92be 8e53 00be 6678 c8be ae02 65be
00000010: 4586 c53c 52e2 813e 7cc0 00be 1d10 8d3e
00000020: 3051 d13e 1dbf b1be bf75 993d 40a4 f1bc
00000030: 2f92 db3e 81de 233b 7e62 2bbe d8c2 053d
00000040: 9962 573e 7de7 063e bf9d 833e 46be 5abe
00000050: 6949 52be ca5c f23d 6076 053e 1c72 7ebe
00000060: f645 dd3d fce5 97be 15ba 7ebe 4a0d 2d3e
00000070: 75db 9bbe 799f 1abd ee42 2cbe 19ae 0a3e

linear2.bias f4 [2]
0.21386145 -0.091308475
00000000: 7ffe 5a3e f0ff babd
