model/model.pth (torch, 1683 bytes, 4 tensors)

linear1.weight f4 [8, 4]
0.26741832 -0.2672506 -0.6593712 0.51816714 0.4116871 0.3660876 -0.2413741 -0.5954764
0.10632773 0.26177645 0.12336825 0.023439478 0.007694482 -0.65373486 0.14618765 -0.4839169
-0.025572399 -0.29622862 -0.063760504 0.18015178 -0.94017524 -0.36518285 0.013373165 0.5311794
0.08393544 0.6324794 0.025331233 -0.81007975 -0.19509964 0.9542569 0.57642084 -0.14047718
00000000: 0eeb 883e 12d5 88be 8dcc 28bf 9aa6 043f
00000010: a7c8 d23e d56f bb3e c62a 77be 2471 18bf
00000020: 5ac2 d93d 9007 863e 7ea8 fc3d 2604 c03c
00000030: fe21 fc3b 2b5b 27bf 37b2 153e f5c3 f7be
00000040: 357d d1bc 47ab 97be de94 82bd b579 383e
00000050: 53af 70bf 3ff9 babe 1f1b 5b3c 60fb 073f
00000060: 58e6 ab3d 2cea 213f 7283 cf3c 6361 4fbf
00000070: 33c8 47be 2e4a 743f 5190 133f 40d9 0fbe

linear1.bias f4 [8]
-0.16783255 0.20586897 -0.5148473 0.17760119 -0.08120511 0.0717348 -0.21129489 0.18411055
00000000: 4cdc 2bbe 51cf 523e 08cd 03bf 16dd 353e
00000010: dd4e a6bd b2e9 923d b05d 58be 7a87 3c3e

linear2.weight f4 [2, 8]
0.2983083 0.31307167 -0.38880852 1.2284709 -0.44343206 0.05698018 -0.07271324 0.5952547
0.6943352 -0.19258772 0.7151543 0.034010045 0.18464021 0.36414093 0.23545304 -0.20179453
00000000: debb 983e ee4a a03e e911 c7be 893e 9d3f
00000010: 8709 e3be 0d64 693d aeea 94bd 9d62 183f
00000020: f4bf 313f b735 45be 5a14 373f 1e4e 0b3d
00000030: 5312 3d3e ae70 ba3e 9a1a 713e 3aa3 4ebe

linear2.bias f4 [2]
-0.3942804 0.078079194
00000000: 1fdf c9be fce7 9f3d
